pretrained_models/RBF.pth (torch, 206773 bytes, 4 tensors)

centers f4 [64, 2]
0	0xbef9ef58	-0.48815417
1	0xc01e1f2b	-2.4706523
2	0x410eaf19	8.917748
3	0xbf2a3054	-0.6647999
4	0xbd581546	-0.052754663
5	0xbdc3edee	-0.09566866
6	0x400658f9	2.0991805
7	0xc072f4d9	-3.7961943
8	0x3e436eca	0.19085231
9	0xc10d3b8b	-8.827037
10	0x3fe67047	1.8003014
11	0xc00b46bc	-2.1761923
12	0xc0747450	-3.8195992
13	0x3dbc59a8	0.09196788
14	0xbd052c9c	-0.032513246
15	0xc09393af	-4.611778
16	0xc0882837	-4.254909
17	0xc0b36f3b	-5.607328
18	0x3e9ff0b2	0.31238323
19	0xbef0cb43	-0.47030076
20	0x40c77984	6.2335835
21	0x3ec535b5	0.38517538
22	0xbfde0880	-1.7346344
23	0x3e68321a	0.22675362
24	0x3f81a709	1.01291
25	0xc0dbefde	-6.8730307
26	0x3d62ac4b	0.055340093
27	0xc053f0a1	-3.3115618
28	0x3f0f1a67	0.5589966
29	0xbfe24266	-1.7676513
30	0x401d4e12	2.45789
31	0xc0c210ea	-6.0645647
32	0x40ff9ec1	7.988129
33	0xbe99b2d6	-0.30019253
34	0x3f66b296	0.9011625
35	0xc058c59c	-3.387061
36	0xbf97731e	-1.1832006
37	0xc06e67df	-3.7250898
38	0xc0c11023	-6.03322
39	0xbf8c446a	-1.0958378
40	0x3fb7aa1a	1.4348786
41	0xbf53032a	-0.824267
42	0x40dc5421	6.8852696
43	0xbf2957ab	-0.66149396
44	0xbf1e2d9e	-0.61788356
45	0xc06cb361	-3.6984484
46	0xbe9bd2df	-0.3043432
47	0xc0d00dbe	-6.5016775
48	0xbf0f136d	-0.55889016
49	0x3c28566b	0.01027451
50	0x3e2e4237	0.17017446
51	0xc031d730	-2.778759
52	0x40088fdb	2.1337802
53	0xbfa880b8	-1.3164282
54	0xc01549d4	-2.332631
55	0x3e9cff05	0.30663314
56	0xc08771b2	-4.232629
57	0xc0834e72	-4.103326
58	0x3f26feb5	0.652324
59	0x3e153606	0.1457139
60	0x41134c7d	9.206174
61	0xbfc79d42	-1.5594866
62	0x4029f9bb	2.6558673
63	0xc04781c8	-3.1172962
64	0xc009723e	-2.1475978
65	0xc0fced77	-7.9039874
66	0x40bc4a7d	5.884093
67	0xbf4bd266	-0.7961792
68	0x40813eb6	4.038905
69	0xbf256e9f	-0.6462192
70	0xc093dd59	-4.62077
71	0xbf3c3bb7	-0.7352862
72	0x3fcb014e	1.5859773
73	0xc043e534	-3.0608644
74	0x3f8a31f0	1.079649
75	0xc0b4b1b2	-5.6466913
76	0x4029a26e	2.650539
77	0xc0ecf0a7	-7.4043765
78	0x3f94233e	1.1573255
79	0xc08c09f8	-4.376217
80	0xbf4bef6f	-0.7966222
81	0xc08c498b	-4.3839774
82	0x403298f8	2.7905865
83	0xc00d82aa	-2.2111
84	0xbf4e4653	-0.80576056
85	0xc04330a7	-3.0498445
86	0xbea9ad79	-0.33140162
87	0xc0faa32c	-7.8324184
88	0x40e3d15b	7.119306
89	0x3e82845c	0.25491607
90	0xc0baa3dd	-5.832503
91	0xc08b7473	-4.357965
92	0xbe91105c	-0.28332794
93	0xc0ab483a	-5.3525667
94	0x3e3295ba	0.17439929
95	0xbcb3c96e	-0.021946635
96	0x401b5bef	2.4274862
97	0xc09d786d	-4.9209504
98	0x3ec8dda2	0.39231592
99	0xbf481e09	-0.7817083
100	0x3fb32295	1.3994929
101	0xbfcb1705	-1.58664
102	0xc04f4cf9	-3.239073
103	0xc0e45c86	-7.1362944
104	0xbf8b8d30	-1.0902462
105	0x3d7162c6	0.05893209
106	0xc0b442de	-5.6331625
107	0xc024ecc7	-2.5769517
108	0x4105a7d4	8.353474
109	0xbfb3b721	-1.4040262
110	0x3f846782	1.0344088
111	0xc020bbf0	-2.5114708
112	0x40f351a8	7.603718
113	0xbf7b4502	-0.9815217
114	0xc0155ad0	-2.3336678
115	0xbf3381e8	-0.70120096
116	0x3d9acd57	0.07558697
117	0xc07ce3e4	-3.9514093
118	0xc042a25b	-3.0411594
119	0x3e93603d	0.2878436
120	0x3f938ce1	1.1527368
121	0xbdcb55ab	-0.09928449
122	0xc0398584	-2.8987741
123	0xc0bd2795	-5.911082
124	0x3ef433a0	0.47695637
125	0xbf94b715	-1.1618372
126	0x400825b1	2.1273005
127	0xbeb96d34	-0.36216128

bandwidths f4 [64]
0	0x418ee0eb	17.859823
1	0x404ced5b	3.201987
2	0x43a41c1a	328.21954
3	0x4106f1c9	8.43403
4	0x40411484	3.0168772
5	0x41472e8a	12.448862
6	0x409efca9	4.9683423
7	0x418be87a	17.488514
8	0x3f022921	0.5084401
9	0x431e4be8	158.29651
10	0x40262677	2.5960977
11	0x41b8d17c	23.102287
12	0x3f915adc	1.1355853
13	0x4203299e	32.79064
14	0x416d63d9	14.836877
15	0x3f864652	1.049021
16	0x40884e1b	4.2595344
17	0x41188a8f	9.533828
18	0x410feba8	8.995033
19	0x3f884df6	1.0648792
20	0x417ce059	15.804772
21	0x40e23118	7.068493
22	0x41ed0250	29.62613
23	0x401def78	2.467741
24	0x422e9a0c	43.650436
25	0x41e05dc9	28.045794
26	0x40d91490	6.78376
27	0x41f62434	30.767677
28	0x3f1aeeb5	0.6052049
29	0x42934352	73.631485
30	0x4088d2d4	4.275736
31	0x4000f220	2.0147781
32	0x3f338018	0.7011733
33	0x3fb29cec	1.3954139
34	0x3f2200a3	0.6328222
35	0x3f64c54f	0.8936357
36	0x41178fe5	9.4726305
37	0x401606b0	2.3441582
38	0x3ebf0482	0.37308127
39	0x4090041b	4.500501
40	0x40f50b81	7.6576543
41	0x40285571	2.630215
42	0x4181f1c1	16.243044
43	0x4028132b	2.62617
44	0x405c846b	3.4455822
45	0x3ecec67e	0.40385813
46	0x409bc02c	4.8672085
47	0x43cd3f57	410.49484
48	0x3f85c0d9	1.0449477
49	0x42b28d38	89.27582
50	0x416db9fb	14.857905
51	0x3f790cba	0.97285044
52	0x41b25a8e	22.294216
53	0x3e82e092	0.2556196
54	0x40c57ed9	6.1717343
55	0x41522e43	13.136294
56	0x40e91ea1	7.284989
57	0x3fa6db56	1.3035686
58	0x419dab75	19.70872
59	0x414427e3	12.259738
60	0x417a596b	15.646831
61	0x3f71a893	0.9439785
62	0x420aa560	34.6615
63	0x403fad9a	2.9949708

eps f4 [784]
0	0x358637bd	1e-06
1	0x358637bd	1e-06
2	0x358637bd	1e-06
3	0x358637bd	1e-06
4	0x358637bd	1e-06
5	0x358637bd	1e-06
6	0x358637bd	1e-06
7	0x358637bd	1e-06
8	0x358637bd	1e-06
9	0x358637bd	1e-06
10	0x358637bd	1e-06
11	0x358637bd	1e-06
12	0x358637bd	1e-06
13	0x358637bd	1e-06
14	0x358637bd	1e-06
15	0x358637bd	1e-06
16	0x358637bd	1e-06
17	0x358637bd	1e-06
18	0x358637bd	1e-06
19	0x358637bd	1e-06
20	0x358637bd	1e-06
21	0x358637bd	1e-06
22	0x358637bd	1e-06
23	0x358637bd	1e-06
24	0x358637bd	1e-06
25	0x358637bd	1e-06
26	0x358637bd	1e-06
27	0x358637bd	1e-06
28	0x358637bd	1e-06
29	0x358637bd	1e-06
30	0x358637bd	1e-06
31	0x358637bd	1e-06
32	0x358637bd	1e-06
33	0x358637bd	1e-06
34	0x358637bd	1e-06
35	0x358637bd	1e-06
36	0x358637bd	1e-06
37	0x358637bd	1e-06
38	0x358637bd	1e-06
39	0x358637bd	1e-06
40	0x358637bd	1e-06
41	0x358637bd	1e-06
42	0x358637bd	1e-06
43	0x358637bd	1e-06
44	0x358637bd	1e-06
45	0x358637bd	1e-06
46	0x358637bd	1e-06
47	0x358637bd	1e-06
48	0x358637bd	1e-06
49	0x358637bd	1e-06
50	0x358637bd	1e-06
51	0x358637bd	1e-06
52	0x358637bd	1e-06
53	0x358637bd	1e-06
54	0x358637bd	1e-06
55	0x358637bd	1e-06
56	0x358637bd	1e-06
57	0x358637bd	1e-06
58	0x358637bd	1e-06
59	0x358637bd	1e-06
60	0x358637bd	1e-06
61	0x358637bd	1e-06
62	0x358637bd	1e-06
63	0x358637bd	1e-06
64	0x358637bd	1e-06
65	0x358637bd	1e-06
66	0x358637bd	1e-06
67	0x358637bd	1e-06
68	0x358637bd	1e-06
69	0x358637bd	1e-06
70	0x358637bd	1e-06
71	0x358637bd	1e-06
72	0x358637bd	1e-06
73	0x358637bd	1e-06
74	0x358637bd	1e-06
75	0x358637bd	1e-06
76	0x358637bd	1e-06
77	0x358637bd	1e-06
78	0x358637bd	1e-06
79	0x358637bd	1e-06
80	0x358637bd	1e-06
81	0x358637bd	1e-06
82	0x358637bd	1e-06
83	0x358637bd	1e-06
84	0x358637bd	1e-06
85	0x358637bd	1e-06
86	0x358637bd	1e-06
87	0x358637bd	1e-06
88	0x358637bd	1e-06
89	0x358637bd	1e-06
90	0x358637bd	1e-06
91	0x358637bd	1e-06
92	0x358637bd	1e-06
93	0x358637bd	1e-06
94	0x358637bd	1e-06
95	0x358637bd	1e-06
96	0x358637bd	1e-06
97	0x358637bd	1e-06
98	0x358637bd	1e-06
99	0x358637bd	1e-06
100	0x358637bd	1e-06
101	0x358637bd	1e-06
102	0x358637bd	1e-06
103	0x358637bd	1e-06
104	0x358637bd	1e-06
105	0x358637bd	1e-06
106	0x358637bd	1e-06
107	0x358637bd	1e-06
108	0x358637bd	1e-06
109	0x358637bd	1e-06
110	0x358637bd	1e-06
111	0x358637bd	1e-06
112	0x358637bd	1e-06
113	0x358637bd	1e-06
114	0x358637bd	1e-06
115	0x358637bd	1e-06
116	0x358637bd	1e-06
117	0x358637bd	1e-06
118	0x358637bd	1e-06
119	0x358637bd	1e-06
120	0x358637bd	1e-06
121	0x358637bd	1e-06
122	0x358637bd	1e-06
123	0x358637bd	1e-06
124	0x358637bd	1e-06
125	0x358637bd	1e-06
126	0x358637bd	1e-06
127	0x358637bd	1e-06
128	0x358637bd	1e-06
129	0x358637bd	1e-06
130	0x358637bd	1e-06
131	0x358637bd	1e-06
132	0x358637bd	1e-06
133	0x358637bd	1e-06
134	0x358637bd	1e-06
135	0x358637bd	1e-06
136	0x358637bd	1e-06
137	0x358637bd	1e-06
138	0x358637bd	1e-06
139	0x358637bd	1e-06
140	0x358637bd	1e-06
141	0x358637bd	1e-06
142	0x358637bd	1e-06
143	0x358637bd	1e-06
144	0x358637bd	1e-06
145	0x358637bd	1e-06
146	0x358637bd	1e-06
147	0x358637bd	1e-06
148	0x358637bd	1e-06
149	0x358637bd	1e-06
150	0x358637bd	1e-06
151	0x358637bd	1e-06
152	0x358637bd	1e-06
153	0x358637bd	1e-06
154	0x358637bd	1e-06
155	0x358637bd	1e-06
156	0x358637bd	1e-06
157	0x358637bd	1e-06
158	0x358637bd	1e-06
159	0x358637bd	1e-06
160	0x358637bd	1e-06
161	0x358637bd	1e-06
162	0x358637bd	1e-06
163	0x358637bd	1e-06
164	0x358637bd	1e-06
165	0x358637bd	1e-06
166	0x358637bd	1e-06
167	0x358637bd	1e-06
168	0x358637bd	1e-06
169	0x358637bd	1e-06
170	0x358637bd	1e-06
171	0x358637bd	1e-06
172	0x358637bd	1e-06
173	0x358637bd	1e-06
174	0x358637bd	1e-06
175	0x358637bd	1e-06
176	0x358637bd	1e-06
177	0x358637bd	1e-06
178	0x358637bd	1e-06
179	0x358637bd	1e-06
180	0x358637bd	1e-06
181	0x358637bd	1e-06
182	0x358637bd	1e-06
183	0x358637bd	1e-06
184	0x358637bd	1e-06
185	0x358637bd	1e-06
186	0x358637bd	1e-06
187	0x358637bd	1e-06
188	0x358637bd	1e-06
189	0x358637bd	1e-06
190	0x358637bd	1e-06
191	0x358637bd	1e-06
192	0x358637bd	1e-06
193	0x358637bd	1e-06
194	0x358637bd	1e-06
195	0x358637bd	1e-06
196	0x358637bd	1e-06
197	0x358637bd	1e-06
198	0x358637bd	1e-06
199	0x358637bd	1e-06
200	0x358637bd	1e-06
201	0x358637bd	1e-06
202	0x358637bd	1e-06
203	0x358637bd	1e-06
204	0x358637bd	1e-06
205	0x358637bd	1e-06
206	0x358637bd	1e-06
207	0x358637bd	1e-06
208	0x358637bd	1e-06
209	0x358637bd	1e-06
210	0x358637bd	1e-06
211	0x358637bd	1e-06
212	0x358637bd	1e-06
213	0x358637bd	1e-06
214	0x358637bd	1e-06
215	0x358637bd	1e-06
216	0x358637bd	1e-06
217	0x358637bd	1e-06
218	0x358637bd	1e-06
219	0x358637bd	1e-06
220	0x358637bd	1e-06
221	0x358637bd	1e-06
222	0x358637bd	1e-06
223	0x358637bd	1e-06
224	0x358637bd	1e-06
225	0x358637bd	1e-06
226	0x358637bd	1e-06
227	0x358637bd	1e-06
228	0x358637bd	1e-06
229	0x358637bd	1e-06
230	0x358637bd	1e-06
231	0x358637bd	1e-06
232	0x358637bd	1e-06
233	0x358637bd	1e-06
234	0x358637bd	1e-06
235	0x358637bd	1e-06
236	0x358637bd	1e-06
237	0x358637bd	1e-06
238	0x358637bd	1e-06
239	0x358637bd	1e-06
240	0x358637bd	1e-06
241	0x358637bd	1e-06
242	0x358637bd	1e-06
243	0x358637bd	1e-06
244	0x358637bd	1e-06
245	0x358637bd	1e-06
246	0x358637bd	1e-06
247	0x358637bd	1e-06
248	0x358637bd	1e-06
249	0x358637bd	1e-06
250	0x358637bd	1e-06
251	0x358637bd	1e-06
252	0x358637bd	1e-06
253	0x358637bd	1e-06
254	0x358637bd	1e-06
255	0x358637bd	1e-06

W.weight f4 [784, 64]
0	0x42759e47	61.404568
1	0x42661161	57.51697
2	0x4285219c	66.56564
3	0x426b1b6c	58.77678
4	0x425869ab	54.10319
5	0x42705041	60.078373
6	0x425a57c6	54.585716
7	0x426518ef	57.27435
8	0x423cac95	47.168537
9	0x42749552	61.14582
10	0x4266b2ab	57.67448
11	0x426f6d4a	59.856728
12	0x426bba54	58.93196
13	0x42727422	60.61341
14	0x4275bde3	61.435436
15	0x4271dc98	60.465424
16	0x426a56d6	58.5848
17	0x42725479	60.582493
18	0x427141e7	60.314358
19	0x420d3995	35.306232
20	0x4266462b	57.568523
21	0x425df1d8	55.486176
22	0x4268226c	58.033615
23	0x424f6f83	51.8589
24	0x4282e06e	65.43834
25	0x427bb6eb	62.92863
26	0x426f4ffa	59.828102
27	0x425c66b9	55.100315
28	0x422b9f44	42.905533
29	0x42859d5d	66.80735
30	0x425fcfd5	55.95296
31	0x42836bbd	65.71043
32	0x4242196c	48.524826
33	0x4270382b	60.05485
34	0x42834661	65.63746
35	0x4263d0b7	56.953823
36	0x4264397b	57.056133
37	0x42636e3a	56.857643
38	0x427c2814	63.03914
39	0x42671152	57.766914
40	0x4276ed17	61.731533
41	0x4278d573	62.208447
42	0x427c584b	63.086224
43	0x4243f5e0	48.990112
44	0x42683eae	58.06121
45	0x42115d29	36.340977
46	0x4263ecc8	56.98123
47	0x42832a41	65.58253
48	0x4282609c	65.18869
49	0x427efbb3	63.7458
50	0x426a826d	58.62737
51	0x422ba1b9	42.907932
52	0x4281d944	64.92435
53	0x4280dc85	64.4307
54	0x426cd054	59.203445
55	0x426a409e	58.563103
56	0x426adf0b	58.717815
57	0x428c6690	70.20032
58	0x4275d943	61.46217
59	0x425fae35	55.920124
60	0x4284dc3a	66.43013
61	0x4236be41	45.685795
62	0x4278bcad	62.184254
63	0x4282b745	65.35795
64	0x4279639c	62.347275
65	0x426636a9	57.55338
66	0x428804ea	68.0096
67	0x426bacd7	58.91879
68	0x42552589	53.286655
69	0x426d2b25	59.292133
70	0x425dd497	55.457607
71	0x4264f7a5	57.24184
72	0x423b291e	46.790154
73	0x4274efb7	61.234097
74	0x4266614b	57.595013
75	0x426c2868	59.03946
76	0x426a9ec8	58.65506
77	0x4271b786	60.429222
78	0x427491f4	61.142532
79	0x427056cc	60.084763
80	0x426940cd	58.313282
81	0x42738b88	60.88626
82	0x42723439	60.551
83	0x420cf0c6	35.23513
84	0x4268c9c1	58.197025
85	0x425e5dd0	55.591614
86	0x42688d78	58.138153
87	0x42521491	52.520084
88	0x4284bd99	66.37031
89	0x427b3455	62.801105
90	0x426db613	59.427807
91	0x425df031	55.484562
92	0x422ae3ad	42.72234
93	0x42861864	67.04764
94	0x4260ebfc	56.230453
95	0x4282ba8e	65.364365
96	0x42417117	48.36044
97	0x42710fda	60.26548
98	0x42833d03	65.61916
99	0x4266f9f3	57.74409
100	0x42662395	57.534748
101	0x4262384b	56.554974
102	0x427a1e1c	62.529404
103	0x42659abf	57.40112
104	0x42769c7f	61.65283
105	0x42772be0	61.792847
106	0x427fc8f1	63.94623
107	0x42433156	48.79818
108	0x4267cb51	57.94855
109	0x4212677c	36.60106
110	0x4265a4d4	57.410965
111	0x4282ffaa	65.499344
112	0x4282b8ad	65.360695
113	0x4280f8d7	64.486015
114	0x4267730e	57.86236
115	0x422b879c	42.88243
116	0x427ff449	63.98856
117	0x4281968e	64.79405
118	0x426e3732	59.5539
119	0x4269d729	58.460117
120	0x426a6300	58.59668
121	0x428b4303	69.63088
122	0x4271ef2b	60.483562
123	0x425eddd0	55.716614
124	0x4284bf4d	66.373634
125	0x42351f9c	45.28087
126	0x427fffbb	63.999737
127	0x4282f603	65.48049
128	0x4279512d	62.329273
129	0x4265a297	57.40878
130	0x42880961	68.01832
131	0x42695a50	58.338196
132	0x4256cad4	53.698074
133	0x427007f4	60.007767
134	0x425d41a6	55.31411
135	0x42651938	57.274628
136	0x4239d68f	46.45953
137	0x427f02c3	63.752697
138	0x42666da9	57.60709
139	0x426c175d	59.022816
140	0x426b3b54	58.807938
141	0x427141cd	60.31426
142	0x426a00f4	58.50093
143	0x4271c9c7	60.44705
144	0x4269ee35	58.482624
145	0x42732b09	60.792027
146	0x427028a7	60.0397
147	0x420ccb81	35.198734
148	0x4267893b	57.884014
149	0x425e25e2	55.536995
150	0x426915de	58.271355
151	0x424f724c	51.861618
152	0x428156aa	64.669266
153	0x4273b114	60.922928
154	0x42708b52	60.136055
155	0x425dc88a	55.44584
156	0x4229f491	42.488834
157	0x4285a89a	66.8293
158	0x425e1057	55.515957
159	0x42830642	65.51222
160	0x42421549	48.520786
161	0x42713714	60.303787
162	0x42826e8a	65.2159
163	0x42670065	57.750385
164	0x426253e9	56.581944
165	0x426328ee	56.78997
166	0x427bc93f	62.94653
167	0x4264340e	57.050835
168	0x42765d15	61.5909
169	0x4279e3d6	62.472496
170	0x42818a18	64.769714
171	0x4243c4bf	48.942135
172	0x4267e8ba	57.977272
173	0x42123975	36.55611
174	0x42656627	57.34976
175	0x42835622	65.66823
176	0x4282171a	65.04512
177	0x42815b63	64.67849
178	0x4267e363	57.972057
179	0x422b0552	42.755196
180	0x42832dd1	65.589485
181	0x428170e7	64.72051
182	0x426be429	58.972813
183	0x426f94c5	59.895283
184	0x4269a9ad	58.4157
185	0x428b747d	69.727516
186	0x427548cc	61.32109
187	0x425dfc2f	55.496273
188	0x4284d11d	66.408424
189	0x4234599f	45.08752
190	0x4274c8e7	61.196194
191	0x427ebe9a	63.686134
192	0x427d95ba	63.396217
193	0x426545a0	57.317993
194	0x4287d1bd	67.909645
195	0x426b23bd	58.7849
196	0x4259715f	54.360714
197	0x42705e56	60.092125
198	0x425cebb6	55.230186
199	0x42645fa6	57.093407
200	0x423c58a9	47.086582
201	0x427ebe85	63.686054
202	0x42678fe2	57.89051
203	0x426f0876	59.758263
204	0x426df3d6	59.48812
205	0x4273164b	60.77177
206	0x42723020	60.546997
207	0x42715109	60.329136
208	0x426a9807	58.648464
209	0x42762c67	61.54336
210	0x4272b810	60.67975
211	0x420ccb5f	35.198605
212	0x426525e8	57.287018
213	0x425e5788	55.58548
214	0x426aec7a	58.730934
215	0x425173cf	52.363094
216	0x4284d5c8	66.41754
217	0x427a0f68	62.515045
218	0x426f7195	59.86092
219	0x425d2984	55.290543
220	0x422b5afc	42.838852
221	0x42876593	67.69839
222	0x425f6e28	55.857574
223	0x42835c05	65.679726
224	0x424100df	48.25085
225	0x42713fe6	60.3124
226	0x42836ab7	65.70843
227	0x426690ec	57.641525
228	0x4264fcf7	57.247036
229	0x42625317	56.581142
230	0x427dd274	63.45552
231	0x42637726	56.866356
232	0x4272a6d1	60.662907
233	0x427a5bbb	62.58958
234	0x4280015c	64.002655
235	0x4245043e	49.254143
236	0x4267ad1c	57.919052
237	0x42129a0c	36.650436
238	0x42638ddc	56.888535
239	0x427f0313	63.753002
240	0x4281ed20	64.963135
241	0x4280f5ec	64.480316
242	0x426768cd	57.852345
243	0x422b926c	42.89299
244	0x42838766	65.76445
245	0x4281c662	64.88747
246	0x426e7a20	59.619263
247	0x426b5e49	58.842075
248	0x42699a17	58.40048
249	0x428d2919	70.58027
250	0x4275aca2	61.418587
251	0x425f3634	55.802933
252	0x4282b9df	65.36303
253	0x4235ca30	45.44745
254	0x427ea215	63.658283
255	0x42820904	65.01761
