pretrained_models/RBF.pth (torch, 55669 bytes, 4 tensors)

centers f4 [16, 2]
000000 e7 27 57 be 44 04 3a bf 50 07 14 3f e8 72 68 3e
       -0.21011315 -0.7266276 0.5782366 0.22700083
000010 44 d5 86 3f 3a ec 17 40 c1 b4 2e c0 3f 05 ee 3f
       1.0533834 2.3737931 -2.7297823 1.8595351
000020 a8 79 9a 40 78 85 cc bf 7a ea a0 bf 47 64 04 3f
       4.8273506 -1.5978231 -1.2571557 0.5171551
000030 1c 31 15 c0 ff f4 7e 40 65 f8 b8 3e f9 ce c0 40
       -2.3311224 3.9837034 0.3612701 6.025265
000040 37 94 87 40 20 1a 43 40 71 84 5c 40 b7 54 a6 3f
       4.2368426 3.0484695 3.4455836 1.2994603
000050 1c 18 64 3f ba e9 0b c0 10 2c 22 40 17 26 65 bf
       0.8909929 -2.1861405 2.5339394 -0.89511245
000060 82 07 7c c0 20 3a 4f 40 18 fa 93 bf 62 1a fa 40
       -3.9379582 3.2379227 -1.1560698 7.8157206
000070 4e 6d a1 bf c8 94 32 40 1b df 41 c0 a0 63 b8 40
       -1.2611482 2.790331 -3.0292423 5.7621613

bandwidths f4 [16]
000000 1b 12 fa 40 4f 70 6c 40 51 81 bc 3f 69 72 7b 40
       7.81471 3.6943548 1.4726964 3.928858
000010 b7 40 14 3e e3 6d 89 40 15 a9 02 40 a6 35 b9 3e
       0.14477812 4.294664 2.04157 0.36173743
000020 da c2 2d 3f ae 87 a7 3f 6f 96 8f 3f b8 b6 93 3f
       0.67875445 1.3088281 1.1217784 1.1540136
000030 9f 5c a8 3f 80 c0 8d 3e a3 8f 1b 40 47 7b 21 3f
       1.3153266 0.27685928 2.430642 0.6307873

eps f4 [784]
000000 bd 37 86 35 bd 37 86 35 bd 37 86 35 bd 37 86 35
       1e-06 1e-06 1e-06 1e-06
000010 bd 37 86 35 bd 37 86 35 bd 37 86 35 bd 37 86 35
       1e-06 1e-06 1e-06 1e-06
000020 bd 37 86 35 bd 37 86 35 bd 37 86 35 bd 37 86 35
       1e-06 1e-06 1e-06 1e-06
000030 bd 37 86 35 bd 37 86 35 bd 37 86 35 bd 37 86 35
       1e-06 1e-06 1e-06 1e-06
000040 bd 37 86 35 bd 37 86 35 bd 37 86 35 bd 37 86 35
       1e-06 1e-06 1e-06 1e-06
000050 bd 37 86 35 bd 37 86 35 bd 37 86 35 bd 37 86 35
       1e-06 1e-06 1e-06 1e-06
000060 bd 37 86 35 bd 37 86 35 bd 37 86 35 bd 37 86 35
       1e-06 1e-06 1e-06 1e-06
000070 bd 37 86 35 bd 37 86 35 bd 37 86 35 bd 37 86 35
       1e-06 1e-06 1e-06 1e-06
000080 bd 37 86 35 bd 37 86 35 bd 37 86 35 bd 37 86 35
       1e-06 1e-06 1e-06 1e-06
000090 bd 37 86 35 bd 37 86 35 bd 37 86 35 bd 37 86 35
       1e-06 1e-06 1e-06 1e-06
0000a0 bd 37 86 35 bd 37 86 35 bd 37 86 35 bd 37 86 35
       1e-06 1e-06 1e-06 1e-06
0000b0 bd 37 86 35 bd 37 86 35 bd 37 86 35 bd 37 86 35
       1e-06 1e-06 1e-06 1e-06
0000c0 bd 37 86 35 bd 37 86 35 bd 37 86 35 bd 37 86 35
       1e-06 1e-06 1e-06 1e-06
0000d0 bd 37 86 35 bd 37 86 35 bd 37 86 35 bd 37 86 35
       1e-06 1e-06 1e-06 1e-06
0000e0 bd 37 86 35 bd 37 86 35 bd 37 86 35 bd 37 86 35
       1e-06 1e-06 1e-06 1e-06
0000f0 bd 37 86 35 bd 37 86 35 bd 37 86 35 bd 37 86 35
       1e-06 1e-06 1e-06 1e-06
000100 bd 37 86 35 bd 37 86 35 bd 37 86 35 bd 37 86 35
       1e-06 1e-06 1e-06 1e-06
000110 bd 37 86 35 bd 37 86 35 bd 37 86 35 bd 37 86 35
       1e-06 1e-06 1e-06 1e-06
000120 bd 37 86 35 bd 37 86 35 bd 37 86 35 bd 37 86 35
       1e-06 1e-06 1e-06 1e-06
000130 bd 37 86 35 bd 37 86 35 bd 37 86 35 bd 37 86 35
       1e-06 1e-06 1e-06 1e-06
000140 bd 37 86 35 bd 37 86 35 bd 37 86 35 bd 37 86 35
       1e-06 1e-06 1e-06 1e-06
000150 bd 37 86 35 bd 37 86 35 bd 37 86 35 bd 37 86 35
       1e-06 1e-06 1e-06 1e-06
000160 bd 37 86 35 bd 37 86 35 bd 37 86 35 bd 37 86 35
       1e-06 1e-06 1e-06 1e-06
000170 bd 37 86 35 bd 37 86 35 bd 37 86 35 bd 37 86 35
       1e-06 1e-06 1e-06 1e-06
000180 bd 37 86 35 bd 37 86 35 bd 37 86 35 bd 37 86 35
       1e-06 1e-06 1e-06 1e-06
000190 bd 37 86 35 bd 37 86 35 bd 37 86 35 bd 37 86 35
       1e-06 1e-06 1e-06 1e-06
0001a0 bd 37 86 35 bd 37 86 35 bd 37 86 35 bd 37 86 35
       1e-06 1e-06 1e-06 1e-06
0001b0 bd 37 86 35 bd 37 86 35 bd 37 86 35 bd 37 86 35
       1e-06 1e-06 1e-06 1e-06
0001c0 bd 37 86 35 bd 37 86 35 bd 37 86 35 bd 37 86 35
       1e-06 1e-06 1e-06 1e-06
0001d0 bd 37 86 35 bd 37 86 35 bd 37 86 35 bd 37 86 35
       1e-06 1e-06 1e-06 1e-06
0001e0 bd 37 86 35 bd 37 86 35 bd 37 86 35 bd 37 86 35
       1e-06 1e-06 1e-06 1e-06
0001f0 bd 37 86 35 bd 37 86 35 bd 37 86 35 bd 37 86 35
       1e-06 1e-06 1e-06 1e-06
000200 bd 37 86 35 bd 37 86 35 bd 37 86 35 bd 37 86 35
       1e-06 1e-06 1e-06 1e-06
000210 bd 37 86 35 bd 37 86 35 bd 37 86 35 bd 37 86 35
       1e-06 1e-06 1e-06 1e-06
000220 bd 37 86 35 bd 37 86 35 bd 37 86 35 bd 37 86 35
       1e-06 1e-06 1e-06 1e-06
000230 bd 37 86 35 bd 37 86 35 bd 37 86 35 bd 37 86 35
       1e-06 1e-06 1e-06 1e-06
000240 bd 37 86 35 bd 37 86 35 bd 37 86 35 bd 37 86 35
       1e-06 1e-06 1e-06 1e-06
000250 bd 37 86 35 bd 37 86 35 bd 37 86 35 bd 37 86 35
       1e-06 1e-06 1e-06 1e-06
000260 bd 37 86 35 bd 37 86 35 bd 37 86 35 bd 37 86 35
       1e-06 1e-06 1e-06 1e-06
000270 bd 37 86 35 bd 37 86 35 bd 37 86 35 bd 37 86 35
       1e-06 1e-06 1e-06 1e-06
000280 bd 37 86 35 bd 37 86 35 bd 37 86 35 bd 37 86 35
       1e-06 1e-06 1e-06 1e-06
000290 bd 37 86 35 bd 37 86 35 bd 37 86 35 bd 37 86 35
       1e-06 1e-06 1e-06 1e-06
0002a0 bd 37 86 35 bd 37 86 35 bd 37 86 35 bd 37 86 35
       1e-06 1e-06 1e-06 1e-06
0002b0 bd 37 86 35 bd 37 86 35 bd 37 86 35 bd 37 86 35
       1e-06 1e-06 1e-06 1e-06
0002c0 bd 37 86 35 bd 37 86 35 bd 37 86 35 bd 37 86 35
       1e-06 1e-06 1e-06 1e-06
0002d0 bd 37 86 35 bd 37 86 35 bd 37 86 35 bd 37 86 35
       1e-06 1e-06 1e-06 1e-06
0002e0 bd 37 86 35 bd 37 86 35 bd 37 86 35 bd 37 86 35
       1e-06 1e-06 1e-06 1e-06
0002f0 bd 37 86 35 bd 37 86 35 bd 37 86 35 bd 37 86 35
       1e-06 1e-06 1e-06 1e-06
000300 bd 37 86 35 bd 37 86 35 bd 37 86 35 bd 37 86 35
       1e-06 1e-06 1e-06 1e-06
000310 bd 37 86 35 bd 37 86 35 bd 37 86 35 bd 37 86 35
       1e-06 1e-06 1e-06 1e-06
000320 bd 37 86 35 bd 37 86 35 bd 37 86 35 bd 37 86 35
       1e-06 1e-06 1e-06 1e-06
000330 bd 37 86 35 bd 37 86 35 bd 37 86 35 bd 37 86 35
       1e-06 1e-06 1e-06 1e-06
000340 bd 37 86 35 bd 37 86 35 bd 37 86 35 bd 37 86 35
       1e-06 1e-06 1e-06 1e-06
000350 bd 37 86 35 bd 37 86 35 bd 37 86 35 bd 37 86 35
       1e-06 1e-06 1e-06 1e-06
000360 bd 37 86 35 bd 37 86 35 bd 37 86 35 bd 37 86 35
       1e-06 1e-06 1e-06 1e-06
000370 bd 37 86 35 bd 37 86 35 bd 37 86 35 bd 37 86 35
       1e-06 1e-06 1e-06 1e-06
000380 bd 37 86 35 bd 37 86 35 bd 37 86 35 bd 37 86 35
       1e-06 1e-06 1e-06 1e-06
000390 bd 37 86 35 bd 37 86 35 bd 37 86 35 bd 37 86 35
       1e-06 1e-06 1e-06 1e-06
0003a0 bd 37 86 35 bd 37 86 35 bd 37 86 35 bd 37 86 35
       1e-06 1e-06 1e-06 1e-06
0003b0 bd 37 86 35 bd 37 86 35 bd 37 86 35 bd 37 86 35
       1e-06 1e-06 1e-06 1e-06
0003c0 bd 37 86 35 bd 37 86 35 bd 37 86 35 bd 37 86 35
       1e-06 1e-06 1e-06 1e-06
0003d0 bd 37 86 35 bd 37 86 35 bd 37 86 35 bd 37 86 35
       1e-06 1e-06 1e-06 1e-06
0003e0 bd 37 86 35 bd 37 86 35 bd 37 86 35 bd 37 86 35
       1e-06 1e-06 1e-06 1e-06
0003f0 bd 37 86 35 bd 37 86 35 bd 37 86 35 bd 37 86 35
       1e-06 1e-06 1e-06 1e-06

W.weight f4 [784, 16]
000000 65 8d 73 3e 13 fd e3 3d 78 11 dc 3d c7 b0 ad 3d
       0.23784406 0.111322545 0.107455194 0.08480983
000010 1e c1 d2 3d 61 90 f3 3d 40 53 9e 3d 69 b2 6a 3d
       0.102907404 0.118927725 0.077307224 0.05729905
000020 f9 02 4f 3e 06 ed 71 3d a1 7d 12 3e 48 54 36 3e
       0.20215978 0.059063934 0.14305736 0.17805588
000030 66 32 b2 3d d4 5e 6c 3e 25 b0 e0 3d 92 d4 6e 3d
       0.08701019 0.23083049 0.10971097 0.05830819
000040 5c 42 fb 3d fd e8 d1 3d ce 6b e8 3d 65 ed b3 3d
       0.122685164 0.10249517 0.11348687 0.08785514
000050 a8 2b 5e 3e 0e 49 8c 3e 32 50 cb 3d 54 11 8c 3d
       0.21696341 0.27399486 0.099274054 0.068392426
000060 fc 3d a2 3d 74 80 3b 3d 51 64 be 3d be 43 d0 3d
       0.07921979 0.0457768 0.092964776 0.10169171
000070 6b f7 a8 3d be 80 d6 3d 75 2a da 3d f6 16 34 3e
       0.08250316 0.104737744 0.10652629 0.17586884
000080 50 35 23 3e e0 ae 29 3e a0 83 dd 3d b1 b7 73 3e
       0.15938306 0.16570616 0.10816121 0.23800541
000090 6c 98 d1 3d 08 5a fd 3d e9 5e f7 3d 83 40 5e 3d
       0.1023415 0.12370688 0.120786496 0.054260742
0000a0 ff 6a 83 3e cc 3c 61 3d 64 df eb 3d 2e 89 3b 3e
       0.2566757 0.05498962 0.11517218 0.18314049
0000b0 d5 2e 68 3e f5 c5 60 3e ba b9 d6 3d 6e 90 13 3e
       0.22674115 0.21950515 0.10484643 0.14410564
0000c0 f2 96 fc 3d 50 53 23 3e 3a 4d dc 3d 39 c8 b5 3d
       0.12333478 0.1594975 0.10756917 0.0887608
0000d0 78 cc 3e 3e 2a 56 25 3e f2 80 84 3d 9b 57 8f 3d
       0.18632686 0.1614615 0.06469907 0.06999131
0000e0 60 e8 a7 3d 86 a4 5d 3d 74 a0 cc 3d 12 51 22 3d
       0.08198619 0.05411198 0.099915415 0.039628096
0000f0 4f d1 af 3d 1e 96 c6 3d 86 9c 2a 3e a2 ac 02 3e
       0.08584844 0.09696601 0.16661271 0.12761167
000100 dd e5 7e 3e 53 6d 3a 3e ed 20 1a 3e 7d df a5 3d
       0.24892373 0.18205766 0.15051623 0.08099268
000110 ae 9b c2 3d e3 12 67 3e d8 7b 97 3d 71 a9 96 3d
       0.0950235 0.22565798 0.07396668 0.07356537
000120 31 90 be 3d c9 0d 28 3e a6 de 10 3e 30 91 00 3e
       0.09304846 0.16411509 0.14147434 0.12555385
000130 68 2e b3 3d 38 db 68 3d 4f 41 da 3d 95 74 d8 3d
       0.08749086 0.05684969 0.10656988 0.10569111
000140 a0 0b 00 3e 8d 70 e9 3d 3e 4d 03 3e 06 f7 aa 3d
       0.12504435 0.113984205 0.12822434 0.08347897
000150 28 8a cf 3d 33 e3 7a 3e ae d7 43 3e 08 82 d4 3d
       0.10133773 0.24500732 0.19125244 0.10376364
000160 db df a1 3d bd e9 1e 3e a0 53 2a 3e da 2a 98 3d
       0.07904025 0.15518852 0.16633463 0.07430048
000170 7f 2c a7 3d 80 9b 51 3d 10 97 d3 3d 35 be 83 3d
       0.08162784 0.051173687 0.10331547 0.064327635
000180 80 7c 58 3e 54 e9 e4 3d a3 74 1f 3e 0c 99 37 3e
       0.21141243 0.11177316 0.15571837 0.17929476
000190 bb 5b d5 3d 26 df f6 3d 1d a5 9e 3d 0d b1 73 3d
       0.10417887 0.12054281 0.077463366 0.05949502
0001a0 22 76 44 3e e6 63 70 3d 2d 4b cb 3d cb c9 51 3e
       0.19185689 0.05868902 0.09926448 0.20487134
0001b0 1b b0 aa 3d f7 bf 40 3e cc 0a dd 3d 74 61 7b 3d
       0.08334371 0.18823229 0.10793075 0.061372235
0001c0 0c 93 f4 3d cd 1b dd 3d e8 12 fa 3d 6c 4a b1 3d
       0.119421095 0.10796318 0.12210637 0.08656773
0001d0 03 a0 2b 3e fb 5b 58 3e 5a 35 82 3d 80 b3 9b 3d
       0.16760258 0.21128838 0.06357832 0.07602596
0001e0 9a 6b ef 3d 97 87 51 3d ba e6 40 3e 07 1e 2b 3d
       0.11690445 0.0511547 0.18838015 0.041776683
0001f0 37 92 ad 3d 27 02 4e 3d 80 bf dd 3d b5 cd 50 3e
       0.08475154 0.05029502 0.10827541 0.20390971
000200 1b 0d f2 3d 95 1c 50 3e 89 43 12 3e a3 25 70 3e
       0.11818906 0.20323403 0.14283575 0.23451857
000210 2a cc 03 3e 86 4b 59 3e d0 e3 2b 3e 03 b4 83 3d
       0.12870851 0.21220216 0.16786122 0.06430819
000220 42 34 ae 3d 1f 15 81 3d b0 0e 2d 3e 1c e6 68 3e
       0.08506061 0.06302857 0.16900134 0.2274403
000230 31 e0 9d 3d 7f d4 43 3d 6a 26 47 3e cc ac 67 3d
       0.07708777 0.047810074 0.19448248 0.056561276
000240 cc 73 fa 3d ae 13 cd 3d 2c b8 d9 3d 51 3a e3 3d
       0.12229118 0.10013519 0.10630831 0.11095107
000250 4b 04 73 3e 70 2d 28 3e 39 26 96 3d 72 c4 76 3d
       0.23732106 0.16423583 0.07331509 0.06024594
000260 d1 4a 9f 3d cf ad 28 3d 2f ce b3 3d f2 df 6d 3e
       0.07777942 0.04118138 0.08779561 0.2322996
000270 77 e1 af 3d d6 2b 72 3e ed 70 1b 3e 2e 45 6d 3d
       0.08587926 0.23649535 0.15179797 0.057927303
000280 e9 fa 00 3e 38 1f 84 3e 46 0c 0e 3e c5 d9 22 3e
       0.12595715 0.25805068 0.1387187 0.15903385
000290 99 a9 ca 3d 9b d5 01 3e 43 bd 98 3d f2 50 07 3e
       0.098956294 0.1267914 0.07457974 0.13214472
0002a0 31 f2 a6 3d 20 7c dd 3d d9 cc eb 3d 83 e5 57 3e
       0.08151663 0.108146906 0.11513681 0.21083646
0002b0 83 5e ab 3d b3 e9 c9 3d c6 3c da 3d bd 36 9a 3d
       0.08367636 0.09859028 0.10656123 0.07529972
0002c0 cd 25 00 3e c3 8b fd 3d c2 7d 01 3e c0 14 b0 3d
       0.1251442 0.12380173 0.12645629 0.08597708
0002d0 88 37 d8 3d d7 b4 27 3e 20 1d 5e 3e dc a4 f9 3d
       0.10557467 0.16377579 0.21690798 0.121896476
0002e0 8a 4c a6 3d 28 ab f9 3d ac ad a9 3d 01 fe 8a 3d
       0.081200674 0.121908486 0.082850784 0.06786729
0002f0 89 a0 a7 3d 0a 25 c5 3d 55 54 d2 3d b0 3f 67 3d
       0.081849165 0.09626205 0.10269991 0.05645722
000300 fe 84 00 3e 27 cb 23 3e 8d d1 f7 3d e5 94 b5 3d
       0.12550732 0.15995465 0.121005155 0.0886629
000310 be 86 ca 3d d1 f3 21 3e 15 d3 89 3d ca a1 85 3d
       0.09888981 0.15815665 0.06729714 0.065249994
000320 68 7a 7e 3e ad 47 02 3e ff 76 16 3e 27 14 99 3d
       0.24851382 0.12722655 0.14693831 0.07474547
000330 09 58 f0 3d 18 c9 2a 3e ed 95 6a 3e c2 96 76 3d
       0.117355414 0.16678274 0.22908755 0.060202368
000340 00 57 ee 3d dd b7 72 3e bc dd db 3d ef b1 16 3e
       0.11637688 0.23702951 0.10735652 0.14716314
000350 e6 96 0b 3e 5f ec 30 3e 0c f9 99 3d 89 3b 7d 3d
       0.13631782 0.17277668 0.07518205 0.061824355
000360 6a eb 55 3e e8 08 53 3d b6 a9 49 3e e2 68 59 3d
       0.20890585 0.051522166 0.19693646 0.05307854
000370 4c 76 ce 3d 73 34 3c 3e eb 64 dc 3d 96 57 74 3d
       0.10081157 0.18379383 0.10761436 0.05965384
000380 49 71 0e 3e f6 e0 7f 3e 8d cd 55 3e 23 56 1c 3e
       0.13910402 0.2498816 0.20879193 0.15267234
000390 a6 3f c9 3d 5d 93 30 3e c3 b3 89 3d 24 a8 3a 3e
       0.09826593 0.17243715 0.0672374 0.18228203
0003a0 6b 39 9d 3d 96 b6 3e 3e 54 b4 ab 3d e1 95 88 3d
       0.07676967 0.18624339 0.08384004 0.06669212
0003b0 cc f8 b8 3d a6 21 f6 3d ad 3d d9 3d bd 60 c3 3d
       0.09031829 0.12018137 0.10607467 0.09539936
0003c0 b6 b7 02 3e 63 b1 56 3e 97 bb b7 3d 84 35 83 3e
       0.12765393 0.20966105 0.08971327 0.25626767
0003d0 e3 da cb 3d 44 d6 00 3e 87 e8 ee 3d cc 70 8c 3d
       0.09953859 0.12581736 0.11665445 0.06857452
0003e0 14 1f 8e 3d 8c f4 60 3d 62 10 1c 3e 68 64 92 3d
       0.069395214 0.054920718 0.15240625 0.07148057
0003f0 5c 38 9f 3d e4 f9 71 3d e6 e9 42 3e 66 fc af 3d
       0.077744216 0.059076205 0.19034538 0.08593063
